…
    "    model.add(Dense(1, activation='sigmoid'))\n",
    "    model.compile(optimizer='adam',loss='binary_crossentropy',metrics=['accuracy'])\n",
    "    \n",
    "    return model"
   ]
  },
  {
   "cell_type": "code",
   "execution_count": 16,
   "metadata": {
    "scrolled": true
   },
   "outputs": [
    {
     "name": "stdout",
     "output_type": "stream",
     "text": [
      "_________________________________________________________________\n",
      "Layer (type)                 Output Shape              Param #   \n",
      "=================================================================\n",
      "conv2d_1 (Conv2D)            (None, 75, 75, 64)        1792      \n",
      "_________________________________________________________________\n",
      "max_pooling2d_1 (MaxPooling2 (None, 37, 37, 64)        0         \n",
      "_________________________________________________________________\n",
      "dropout_1 (Dropout)          (None, 37, 37, 64)        0         \n",
      "_________________________________________________________________\n",
      "conv2d_2 (Conv2D)            (None, 37, 37, 64)        36928     \n",
      "_________________________________________________________________\n",
      "max_pooling2d_2 (MaxPooling2 (None, 18, 18, 64)        0         \n",
      "_________________________________________________________________\n",
      "dropout_2 (Dropout)          (None, 18, 18, 64)        0         \n",
      "_________________________________________________________________\n",
      "conv2d_3 (Conv2D)            (None, 18, 18, 128)       73856     \n",
      "_________________________________________________________________\n",
      "max_pooling2d_3 (MaxPooling2 (None, 9, 9, 128)         0         \n",
      "_________________________________________________________________\n",
      "dropout_3 (Dropout)          (None, 9, 9, 128)         0         \n",
      "_________________________________________________________________\n",
      "conv2d_4 (Conv2D)            (None, 9, 9, 128)         147584    \n",
      "_________________________________________________________________\n",
      "max_pooling2d_4 (MaxPooling2 (None, 4, 4, 128)         0         \n",
      "_________________________________________________________________\n",
      "dropout_4 (Dropout)          (None, 4, 4, 128)         0         \n",
      "_________________________________________________________________\n",
      "flatten_1 (Flatten)          (None, 2048)              0         \n",
      "_________________________________________________________________\n",
      "dense_1 (Dense)              (None, 512)               1049088   \n",
      "_________________________________________________________________\n",
      "dropout_5 (Dropout)          (None, 512)               0         \n",
      "_________________________________________________________________\n",
      "dense_2 (Dense)              (None, 256)               131328    \n",
      "_________________________________________________________________\n",
      "dropout_6 (Dropout)          (None, 256)               0         \n",
      "_________________________________________________________________\n",
      "dense_3 (Dense)              (None, 1)                 257       \n",
      "=================================================================\n",
      "Total params: 1,440,833\n",
      "Trainable params: 1,440,833\n",
      "Non-trainable params: 0\n",
      "_________________________________________________________________\n"
     ]
    }
   ],
   "source": [
    "model_temp = base_model()\n",
    "model_temp.summary()"
   ]
  },
  {
   "cell_type": "markdown",
…
    "    model.compile(optimizer='adam',loss='binary_crossentropy',metrics=['accuracy'])\n",
    "    \n",
    "    return model"
   ]
  },
  {
   "cell_type": "code",
   "execution_count": 19,
   "metadata": {},
   "outputs": [
    {
     "name": "stdout",
     "output_type": "stream",
     "text": [
      "____________________________________________________________________________________________________\n",
      "Layer (type)                     Output Shape          Param #     Connected to                     \n",
      "====================================================================================================\n",
      "conv2d_5_input (InputLayer)      (None, 75, 75, 3)     0                                            \n",
      "____________________________________________________________________________________________________\n",
      "conv2d_5 (Conv2D)                (None, 75, 75, 64)    1792        conv2d_5_input[0][0]             \n",
      "____________________________________________________________________________________________________\n",
      "max_pooling2d_5 (MaxPooling2D)   (None, 37, 37, 64)    0           conv2d_5[0][0]                   \n",
      "____________________________________________________________________________________________________\n",
      "dropout_7 (Dropout)              (None, 37, 37, 64)    0           max_pooling2d_5[0][0]            \n",
      "____________________________________________________________________________________________________\n",
      "conv2d_6 (Conv2D)                (None, 37, 37, 64)    36928       dropout_7[0][0]                  \n",
      "____________________________________________________________________________________________________\n",
      "max_pooling2d_6 (MaxPooling2D)   (None, 18, 18, 64)    0           conv2d_6[0][0]                   \n",
      "____________________________________________________________________________________________________\n",
      "dropout_8 (Dropout)              (None, 18, 18, 64)    0           max_pooling2d_6[0][0]            \n",
      "____________________________________________________________________________________________________\n",
      "conv2d_7 (Conv2D)                (None, 18, 18, 128)   73856       dropout_8[0][0]                  \n",
      "____________________________________________________________________________________________________\n",
      "max_pooling2d_7 (MaxPooling2D)   (None, 9, 9, 128)     0           conv2d_7[0][0]                   \n",
      "____________________________________________________________________________________________________\n",
      "dropout_9 (Dropout)              (None, 9, 9, 128)     0           max_pooling2d_7[0][0]            \n",
      "____________________________________________________________________________________________________\n",
      "conv2d_8 (Conv2D)                (None, 9, 9, 128)     147584      dropout_9[0][0]                  \n",
      "____________________________________________________________________________________________________\n",
      "max_pooling2d_8 (MaxPooling2D)   (None, 4, 4, 128)     0           conv2d_8[0][0]                   \n",
      "____________________________________________________________________________________________________\n",
      "dropout_10 (Dropout)             (None, 4, 4, 128)     0           max_pooling2d_8[0][0]            \n",
      "____________________________________________________________________________________________________\n",
      "angle (InputLayer)               (None, 1)             0                                            \n",
      "____________________________________________________________________________________________________\n",
      "flatten_2 (Flatten)              (None, 2048)          0           dropout_10[0][0]                 \n",
      "____________________________________________________________________________________________________\n",
      "dense_4 (Dense)                  (None, 1)             2           angle[0][0]                      \n",
      "____________________________________________________________________________________________________\n",
      "concatenate_1 (Concatenate)      (None, 2049)          0           flatten_2[0][0]                  \n",
      "                                                                   dense_4[0][0]                    \n",
      "____________________________________________________________________________________________________\n",
      "dense_5 (Dense)                  (None, 512)           1049600     concatenate_1[0][0]              \n",
      "____________________________________________________________________________________________________\n",
      "dropout_11 (Dropout)             (None, 512)           0           dense_5[0][0]                    \n",
      "____________________________________________________________________________________________________\n",
      "dense_6 (Dense)                  (None, 256)           131328      dropout_11[0][0]                 \n",
      "____________________________________________________________________________________________________\n",
      "dropout_12 (Dropout)             (None, 256)           0           dense_6[0][0]                    \n",
      "____________________________________________________________________________________________________\n",
      "dense_7 (Dense)                  (None, 1)             257         dropout_12[0][0]                 \n",
      "====================================================================================================\n",
      "Total params: 1,441,347\n",
      "Trainable params: 1,441,347\n",
      "Non-trainable params: 0\n",
      "____________________________________________________________________________________________________\n"
     ]
    }
   ],
   "source": [
…
